…
et after 500 epochs. With this GAN I wouldn&#39;t expect great results. GANs in general have a lot of parameters and are hard to train. U-NET based GANS do fairly well for a low parameter Generators though. U-NETs are conditional Generators that take an image as an input. Feel free to look at other architectures as well, though know that they can take a long time to train. . learn.show_results(max_n=9, ds_idx=0) . And here is the generator model architecture. This is just like a CNN, except that it uses ConvTranspose2D . learn.model.generator . Sequential( (0): AddChannels() (1): ConvLayer( (0): ConvTranspose2d(100, 512, kernel_size=(4, 4), stride=(1, 1), bias=False) (1): BatchNorm2d(512, eps=1e-05, momentum=0.1, affine=True, track_running_stats=True) (2): ReLU() ) (2): ConvLayer( (0): ConvTranspose2d(512, 256, kernel_size=(4, 4), stride=(2, 2), padding=(1, 1), bias=False) (1): BatchNorm2d(256, eps=1e-05, momentum=0.1, affine=True, track_running_stats=True) (2): ReLU() ) (3): ConvLayer( (0): ConvTranspose2d(256, 128, kernel_size=(4, 4), stride=(2, 2), padding=(1, 1), bias=False) (1): BatchNorm2d(128, eps=1e-05, momentum=0.1, affine=True, track_running_stats=True) (2): ReLU() ) (4): ConvLayer( (0): ConvTranspose2d(128, 64, kernel_size=(4, 4), stride=(2, 2), padding=(1, 1), bias=False) (1): BatchNorm2d(64, eps=1e-05, momentum=0.1, affine=True, track_running_stats=True) (2): ReLU() ) (5): ConvLayer( (0): ConvTranspose2d(64, 64, kernel_size=(3, 3), stride=(1, 1), padding=(1, 1), bias=False) (1): BatchNorm2d(64, eps=1e-05, momentum=0.1, affine=True, track_running_stats=True) (2): ReLU() ) (6): ConvTranspose2d(64, 3, kernel_size=(4, 4), stride=(2, 2), padding=(1, 1), bias=False) (7): Tanh() ) . rand is going to be our input into our ConvTranspose layer. It is just random noise. . rand=torch.randn([1,100],device=default_device()) . Here we are using an identity matrix * 5, we are going to add this to blow up specific weights. This is just to show example of how the random input gets mapped to different f
…
mg) . def gen_loss(fake_pred, output, target): return fake_pred.mean() . def critic_loss(real_pred, fake_pred): return real_pred.mean() - fake_pred.mean() . This first module you will notice is AddChannels. This Module is simply responsible for simply making our noise into the correct shape for the following Conv Layer. Remember a ConvLayer expects a shape of BatchSize x Channels x Width x Height. We are going to reproduce this now. Later we will reproduce ConvTranspose using padding, and a regular Convolutional Layer. . learn.model.generator . Sequential( (0): AddChannels() (1): ConvLayer( (0): ConvTranspose2d(100, 512, kernel_size=(4, 4), stride=(1, 1), bias=False) (1): BatchNorm2d(512, eps=1e-05, momentum=0.1, affine=True, track_running_stats=True) (2): ReLU() ) (2): ConvLayer( (0): ConvTranspose2d(512, 256, kernel_size=(4, 4), stride=(2, 2), padding=(1, 1), bias=False) (1): BatchNorm2d(256, eps=1e-05, momentum=0.1, affine=True, track_running_stats=True) (2): ReLU() ) (3): ConvLayer( (0): ConvTranspose2d(256, 128, kernel_size=(4, 4), stride=(2, 2), padding=(1, 1), bias=False) (1): BatchNorm2d(128, eps=1e-05, momentum=0.1, affine=True, track_running_stats=True) (2): ReLU() ) (4): ConvLayer( (0): ConvTranspose2d(128, 64, kernel_size=(4, 4), stride=(2, 2), padding=(1, 1), bias=False) (1): BatchNorm2d(64, eps=1e-05, momentum=0.1, affine=True, track_running_stats=True) (2): ReLU() ) (5): ConvLayer( (0): ConvTranspose2d(64, 64, kernel_size=(3, 3), stride=(1, 1), padding=(1, 1), bias=False) (1): BatchNorm2d(64, eps=1e-05, momentum=0.1, affine=True, track_running_stats=True) (2): ReLU() ) (6): ConvTranspose2d(64, 3, kernel_size=(4, 4), stride=(2, 2), padding=(1, 1), bias=False) (7): Tanh() ) . class AddChannels(Module): &quot;Add `n_dim` channels at the end of the input.&quot; def __init__(self, n_dim): self.n_dim=n_dim def forward(self, x): return x.view(*(list(x.shape)+[1]*self.n_dim)) . x=dls.one_batch()[0] n_dim=2 list(x.shape),list(x.shape)+[1]*n_dim . ([128, 100], [128, 100, 1, 1]) . x=AddChannel
…
